…
5.401461: I tensorflow/core/platform/cpu_feature_guard.cc:140] Your CPU supports instructions that this TensorFlow binary was not compiled to use: AVX2 FMA
Using TensorFlow backend.
1193514
running final lstm..
ytest [[0. 0. 0. ... 0. 0. 0.]
 [0. 0. 1. ... 0. 0. 0.]
 [0. 0. 0. ... 0. 0. 1.]
 ...
 [0. 0. 1. ... 0. 0. 0.]
 [0. 1. 0. ... 0. 0. 0.]
 [0. 0. 0. ... 0. 1. 0.]]
_________________________________________________________________
Layer (type)                 Output Shape              Param #   
=================================================================
embedding_1 (Embedding)      (None, 300, 100)          3991900   
_________________________________________________________________
dense_1 (Dense)              (None, 300, 64)           6464      
_________________________________________________________________
dropout_1 (Dropout)          (None, 300, 64)           0         
_________________________________________________________________
dense_2 (Dense)              (None, 300, 64)           4160      
_________________________________________________________________
dropout_2 (Dropout)          (None, 300, 64)           0         
_________________________________________________________________
flatten_1 (Flatten)          (None, 19200)             0         
_________________________________________________________________
dense_3 (Dense)              (None, 9)                 172809    
=================================================================
Total params: 4,175,333
Trainable params: 183,433
Non-trainable params: 3,991,900
_________________________________________________________________
None
test preds [[1.13414481e-01 3.03008333e-02 1.15404418e-02 ... 1.02055655e-03
  3.66371329e-04 1.45587081e-03]
 [5.65184534e-01 1.35872155e-01 8.28493852e-04 ... 2.62348384e-01
  7.06984370e-04 7.39405572e-04]
…
Saved model to disk
Accuracy run 10: 0.4098360658180518

averaged accuracy 0.4967105263157895
2018-07-17 20:29:21.276802: I tensorflow/core/platform/cpu_feature_guard.cc:140] Your CPU supports instructions that this TensorFlow binary was not compiled to use: AVX2 FMA
Using TensorFlow backend.
71054
running final lstm..
ytest [[1. 0.]
 [1. 0.]
 [1. 0.]
 ...
 [0. 1.]
 [1. 0.]
 [1. 0.]]
_________________________________________________________________
Layer (type)                 Output Shape              Param #   
=================================================================
embedding_1 (Embedding)      (None, 300, 100)          3991900   
_________________________________________________________________
lstm_1 (LSTM)                (None, 300, 128)          117248    
_________________________________________________________________
lstm_2 (LSTM)                (None, 300, 128)          131584    
_________________________________________________________________
lstm_3 (LSTM)                (None, 128)               131584    
_________________________________________________________________
dropout_1 (Dropout)          (None, 128)               0         
_________________________________________________________________
dense_1 (Dense)              (None, 2)                 258       
=================================================================
Total params: 4,372,574
Trainable params: 380,674
Non-trainable params: 3,991,900
_________________________________________________________________
None
test preds [[0.42706114 0.5729388 ]
 [0.42706126 0.5729388 ]
 [0.42706108 0.5729389 ]
 ...
 [0.4270613  0.57293874]
 [0.42706117 0.5729388 ]
 [0.4270612  0.5729388 ]]
Saved model to disk
Accuracy run 1: 0.6203904551435706

_________________________________________________________________
Layer (type)                 Output Shape              Param #   
=================================================================
embedding_2 (Embedding)      (None, 300, 100)          3991900   
_________________________________________________________________
lstm_4 (LSTM)                (None, 300, 128)          117248    
_________________________________________________________________
lstm_5 (LSTM)                (None, 300, 128)          131584    
_________________________________________________________________
lstm_6 (LSTM)                (None, 128)               131584    
_________________________________________________________________
dropout_2 (Dropout)          (None, 128)               0         
_________________________________________________________________
dense_2 (Dense)              (None, 2)                 258       
=================================================================
Total params: 4,372,574
Trainable params: 380,674
Non-trainable params: 3,991,900
_________________________________________________________________
None
test preds [[0.72312707 0.2768729 ]
 [0.155375   0.84462506]
 [0.15201703 0.847983  ]
 ...
 [0.11807758 0.8819224 ]
 [0.48790404 0.51209605]
 [0.48800611 0.5119939 ]]
Saved model to disk
Accuracy run 2: 0.6832971796555012

_________________________________________________________________
Layer (type)                 Output Shape              Param #   
=================================================================
embedding_3 (Embedding)      (None, 300, 100)          3991900   
_________________________________________________________________
lstm_7 (LSTM)                (None, 300, 128)          117248    
_________________________________________________________________
lstm_8 (LSTM)                (None, 300, 128)          131584    
_________________________________________________________________
lstm_9 (LSTM)                (None, 128)               131584    
_________________________________________________________________
dropout_3 (Dropout)          (None, 128)               0         
_________________________________________________________________
dense_3 (Dense)              (None, 2)                 258       
=================================================================
Total params: 4,372,574
Trainable params: 380,674
Non-trainable params: 3,991,900
_________________________________________________________________
None
test preds [[0.287731   0.71226895]
 [0.28772527 0.7122747 ]
 [0.28774586 0.71225405]
 ...
 [0.28772074 0.71227926]
 [0.28772554 0.7122744 ]
 [0.2877326  0.7122674 ]]
Saved model to disk
Accuracy run 3: 0.6203904551435706

_________________________________________________________________
Layer (type)                 Output Shape              Param #   
=================================================================
embedding_4 (Embedding)      (None, 300, 100)          3991900   
_________________________________________________________________
lstm_10 (LSTM)               (None, 300, 128)          117248    
_________________________________________________________________
lstm_11 (LSTM)               (None, 300, 128)          131584    
_________________________________________________________________
lstm_12 (LSTM)               (None, 128)               131584    
_________________________________________________________________
dropout_4 (Dropout)          (None, 128)               0         
_________________________________________________________________
dense_4 (Dense)              (None, 2)                 258       
=================================================================
Total params: 4,372,574
Trainable params: 380,674
Non-trainable params: 3,991,900
_________________________________________________________________
None
test preds [[0.43267456 0.5673255 ]
 [0.4326745  0.56732553]
 [0.43267453 0.5673255 ]
 ...
 [0.43267474 0.56732523]
 [0.43267444 0.56732553]
 [0.4326745  0.56732553]]
Saved model to disk
Accuracy run 4: 0.6203904551435706

_________________________________________________________________
Layer (type)                 Output Shape              Param #   
=================================================================
embedding_5 (Embedding)      (None, 300, 100)          3991900   
_________________________________________________________________
lstm_13 (LSTM)               (None, 300, 128)          117248    
_________________________________________________________________
lstm_14 (LSTM)               (None, 300, 128)          131584    
_________________________________________________________________
lstm_15 (LSTM)               (None, 128)               131584    
_________________________________________________________________
dropout_5 (Dropout)          (None, 128)               0         
_________________________________________________________________
dense_5 (Dense)              (None, 2)                 258       
=================================================================
Total params: 4,372,574
Trainable params: 380,674
Non-trainable params: 3,991,900
_________________________________________________________________
None
test preds [[0.57217544 0.42782456]
 [0.31261995 0.68738   ]
 [0.31261626 0.6873838 ]
 ...
 [0.31261918 0.6873809 ]
 [0.3126205  0.6873795 ]
 [0.57217264 0.42782742]]
Saved model to disk
Accuracy run 5: 0.5878524941891238

_________________________________________________________________
Layer (type)                 Output Shape              Param #   
=================================================================
embedding_6 (Embedding)      (None, 300, 100)          3991900   
_________________________________________________________________
lstm_16 (LSTM)               (None, 300, 128)          117248    
_________________________________________________________________
lstm_17 (LSTM)               (None, 300, 128)          131584    
_________________________________________________________________
lstm_18 (LSTM)               (None, 128)               131584    
_________________________________________________________________
dropout_6 (Dropout)          (None, 128)               0         
_________________________________________________________________
dense_6 (Dense)              (None, 2)                 258       
=================================================================
Total params: 4,372,574
Trainable params: 380,674
Non-trainable params: 3,991,900
_________________________________________________________________
None
test preds [[0.39623228 0.6037677 ]
 [0.39623228 0.6037677 ]
 [0.39623228 0.60376775]
 ...
 [0.39623228 0.60376775]
 [0.39623228 0.6037677 ]
 [0.3962323  0.6037677 ]]
Saved model to disk
Accuracy run 6: 0.6203904551435706

_________________________________________________________________
Layer (type)                 Output Shape              Param #   
=================================================================
embedding_7 (Embedding)      (None, 300, 100)          3991900   
_________________________________________________________________
lstm_19 (LSTM)               (None, 300, 128)          117248    
_________________________________________________________________
lstm_20 (LSTM)               (None, 300, 128)          131584    
_________________________________________________________________
lstm_21 (LSTM)               (None, 128)               131584    
_________________________________________________________________
dropout_7 (Dropout)          (None, 128)               0         
_________________________________________________________________
dense_7 (Dense)              (None, 2)                 258       
=================================================================
Total params: 4,372,574
Trainable params: 380,674
Non-trainable params: 3,991,900
_________________________________________________________________
None
test preds [[0.3939386  0.60606134]
 [0.39395672 0.6060433 ]
 [0.3938633  0.60613674]
 ...
 [0.39376828 0.60623175]
 [0.3939404  0.6060596 ]
 [0.39395857 0.6060415 ]]
Saved model to disk
Accuracy run 7: 0.6203904551435706

_________________________________________________________________
Layer (type)                 Output Shape              Param #   
=================================================================
embedding_8 (Embedding)      (None, 300, 100)          3991900   
_________________________________________________________________
lstm_22 (LSTM)               (None, 300, 128)          117248    
_________________________________________________________________
lstm_23 (LSTM)               (None, 300, 128)          131584    
_________________________________________________________________
lstm_24 (LSTM)               (None, 128)               131584    
_________________________________________________________________
dropout_8 (Dropout)          (None, 128)               0         
_________________________________________________________________
dense_8 (Dense)              (None, 2)                 258       
=================================================================
Total params: 4,372,574
Trainable params: 380,674
Non-trainable params: 3,991,900
_________________________________________________________________
None
test preds [[0.34197858 0.6580214 ]
 [0.34196824 0.65803176]
 [0.34197542 0.6580246 ]
 ...
 [0.3420032  0.65799683]
 [0.34195876 0.65804124]
 [0.34196737 0.65803266]]
Saved model to disk
Accuracy run 8: 0.6149674616511628

_________________________________________________________________
Layer (type)                 Output Shape              Param #   
=================================================================
embedding_9 (Embedding)      (None, 300, 100)          3991900   
_________________________________________________________________
lstm_25 (LSTM)               (None, 300, 128)          117248    
_________________________________________________________________
lstm_26 (LSTM)               (None, 300, 128)          131584    
_________________________________________________________________
lstm_27 (LSTM)               (None, 128)               131584    
_________________________________________________________________
dropout_9 (Dropout)          (None, 128)               0         
_________________________________________________________________
dense_9 (Dense)              (None, 2)                 258       
=================================================================
Total params: 4,372,574
Trainable params: 380,674
Non-trainable params: 3,991,900
_________________________________________________________________
None
test preds [[0.27189362 0.7281064 ]
 [0.27180508 0.72819495]
 [0.2717536  0.72824645]
 ...
 [0.27208942 0.7279106 ]
 [0.271719   0.728281  ]
 [0.27176294 0.7282371 ]]
Saved model to disk
Accuracy run 9: 0.6193058573501488

_________________________________________________________________
Layer (type)                 Output Shape              Param #   
=================================================================
embedding_10 (Embedding)     (None, 300, 100)          3991900   
_________________________________________________________________
lstm_28 (LSTM)               (None, 300, 128)          117248    
_________________________________________________________________
lstm_29 (LSTM)               (None, 300, 128)          131584    
_________________________________________________________________
lstm_30 (LSTM)               (None, 128)               131584    
_________________________________________________________________
dropout_10 (Dropout)         (None, 128)               0         
_________________________________________________________________
dense_10 (Dense)             (None, 2)                 258       
=================================================================
Total params: 4,372,574
Trainable params: 380,674
Non-trainable params: 3,991,900
_________________________________________________________________
None
test preds [[0.67396814 0.3260318 ]
 [0.33927137 0.66072863]
 [0.3819473  0.6180527 ]
 ...
 [0.3308425  0.6691575 ]
 [0.36069492 0.6393052 ]
 [0.6752441  0.32475594]]
Saved model to disk
Accuracy run 10: 0.6767895882403773

averaged accuracy 0.6073752711496746
2018-07-17 21:24:02.063500: I tensorflow/core/platform/cpu_feature_guard.cc:140] Your CPU supports instructions that this TensorFlow binary was not compiled to use: AVX2 FMA
Using TensorFlow backend.
1231193
running final lstm..
ytest [[1. 0.]
 [1. 0.]
 [0. 1.]
 ...
 [0. 1.]
 [1. 0.]
 [0. 1.]]
_________________________________________________________________
Layer (type)                 Output Shape              Param #   
=================================================================
embedding_1 (Embedding)      (None, 300, 100)          2560400   
_________________________________________________________________
lstm_1 (LSTM)                (None, 128)               117248    
_________________________________________________________________
dropout_1 (Dropout)          (None, 128)               0         
_________________________________________________________________
dense_1 (Dense)              (None, 2)                 258       
=================================================================
Total params: 2,677,906
Trainable params: 117,506
Non-trainable params: 2,560,400
_________________________________________________________________
None
test preds [[0.00936833 0.9906317 ]
 [0.07369835 0.92630166]
 [0.9979919  0.00200808]
 ...
 [0.20092396 0.7990761 ]
 [0.9981665  0.00183353]
 [0.00895809 0.9910419 ]]
Saved model to disk
Accuracy run 1: 0.6180790967186965

_________________________________________________________________
Layer (type)                 Output Shape              Param #   
=================================================================
embedding_2 (Embedding)      (None, 300, 100)          2560400   
_________________________________________________________________
lstm_2 (LSTM)                (None, 128)               117248    
_________________________________________________________________
dropout_2 (Dropout)          (None, 128)               0         
_________________________________________________________________
dense_2 (Dense)              (None, 2)                 258       
=================================================================
Total params: 2,677,906
Trainable params: 117,506
Non-trainable params: 2,560,400
_________________________________________________________________
None
test preds [[4.0922090e-03 9.9590778e-01]
 [2.7854079e-01 7.2145921e-01]
 [9.9985325e-01 1.4673977e-04]
 ...
 [2.3768230e-03 9.9762315e-01]
 [9.9986255e-01 1.3747047e-04]
 [3.4740481e-03 9.9652594e-01]]
Saved model to disk
Accuracy run 2: 0.6101694921315727

_________________________________________________________________
Layer (type)                 Output Shape              Param #   
=================================================================
embedding_3 (Embedding)      (None, 300, 100)          2560400   
_________________________________________________________________
lstm_3 (LSTM)                (None, 128)               117248    
_________________________________________________________________
dropout_3 (Dropout)          (None, 128)               0         
_________________________________________________________________
dense_3 (Dense)              (None, 2)                 258       
=================================================================
Total params: 2,677,906
Trainable params: 117,506
Non-trainable params: 2,560,400
_________________________________________________________________
None
test preds [[0.04907547 0.9509245 ]
 [0.20294088 0.7970591 ]
 [0.44439387 0.5556061 ]
 ...
 [0.06217969 0.9378204 ]
 [0.3851963  0.61480373]
 [0.04907623 0.95092374]]
Saved model to disk
Accuracy run 3: 0.6158192097130468

_________________________________________________________________
Layer (type)                 Output Shape              Param #   
=================================================================
embedding_4 (Embedding)      (None, 300, 100)          2560400   
_________________________________________________________________
lstm_4 (LSTM)                (None, 128)               117248    
_________________________________________________________________
dropout_4 (Dropout)          (None, 128)               0         
_________________________________________________________________
dense_4 (Dense)              (None, 2)                 258       
=================================================================
Total params: 2,677,906
Trainable params: 117,506
Non-trainable params: 2,560,400
_________________________________________________________________
None
test preds [[0.01239543 0.9876046 ]
 [0.67850065 0.32149938]
 [0.9892402  0.01075971]
 ...
 [0.71704674 0.28295326]
 [0.7535042  0.2464958 ]
 [0.01180162 0.98819846]]
Saved model to disk
Accuracy run 4: 0.6011299436038496

_________________________________________________________________
Layer (type)                 Output Shape              Param #   
=================================================================
embedding_5 (Embedding)      (None, 300, 100)          2560400   
_________________________________________________________________
lstm_5 (LSTM)                (None, 128)               117248    
_________________________________________________________________
dropout_5 (Dropout)          (None, 128)               0         
_________________________________________________________________
dense_5 (Dense)              (None, 2)                 258       
=================================================================
Total params: 2,677,906
Trainable params: 117,506
Non-trainable params: 2,560,400
_________________________________________________________________
None
test preds [[2.1705870e-03 9.9782938e-01]
 [9.9937254e-01 6.2746846e-04]
 [9.9937338e-01 6.2659441e-04]
 ...
 [4.4226083e-01 5.5773920e-01]
 [9.9937373e-01 6.2632852e-04]
 [2.1998838e-03 9.9780005e-01]]
Saved model to disk
Accuracy run 5: 0.6259887012384706

_________________________________________________________________
Layer (type)                 Output Shape              Param #   
=================================================================
embedding_6 (Embedding)      (None, 300, 100)          2560400   
_________________________________________________________________
lstm_6 (LSTM)                (None, 128)               117248    
_________________________________________________________________
dropout_6 (Dropout)          (None, 128)               0         
_________________________________________________________________
dense_6 (Dense)              (None, 2)                 258       
=================================================================
Total params: 2,677,906
Trainable params: 117,506
Non-trainable params: 2,560,400
_________________________________________________________________
None
test preds [[1.8996868e-04 9.9981004e-01]
 [1.8193276e-04 9.9981815e-01]
 [8.2379979e-01 1.7620021e-01]
 ...
 [5.3308421e-01 4.6691579e-01]
 [8.5333395e-01 1.4666605e-01]
 [1.3741045e-04 9.9986255e-01]]
Saved model to disk
Accuracy run 6: 0.6192090397163973

_________________________________________________________________
Layer (type)                 Output Shape              Param #   
=================================================================
embedding_7 (Embedding)      (None, 300, 100)          2560400   
_________________________________________________________________
lstm_7 (LSTM)                (None, 128)               117248    
_________________________________________________________________
dropout_7 (Dropout)          (None, 128)               0         
_________________________________________________________________
dense_7 (Dense)              (None, 2)                 258       
=================================================================
Total params: 2,677,906
Trainable params: 117,506
Non-trainable params: 2,560,400
_________________________________________________________________
None
test preds [[0.00612769 0.9938723 ]
 [0.8485301  0.15146983]
 [0.97794956 0.02205044]
 ...
 [0.00505636 0.9949437 ]
 [0.8063061  0.19369389]
 [0.02001276 0.9799872 ]]
Saved model to disk
Accuracy run 7: 0.6169491527107476

_________________________________________________________________
Layer (type)                 Output Shape              Param #   
=================================================================
embedding_8 (Embedding)      (None, 300, 100)          2560400   
_________________________________________________________________
lstm_8 (LSTM)                (None, 128)               117248    
_________________________________________________________________
dropout_8 (Dropout)          (None, 128)               0         
_________________________________________________________________
dense_8 (Dense)              (None, 2)                 258       
=================================================================
Total params: 2,677,906
Trainable params: 117,506
Non-trainable params: 2,560,400
_________________________________________________________________
None
test preds [[0.00765846 0.9923415 ]
 [0.00828609 0.9917139 ]
 [0.9891601  0.01083984]
 ...
 [0.0077823  0.99221766]
 [0.98923457 0.01076551]
 [0.00762628 0.99237365]]
Saved model to disk
Accuracy run 8: 0.6067796611853239

_________________________________________________________________
Layer (type)                 Output Shape              Param #   
=================================================================
embedding_9 (Embedding)      (None, 300, 100)          2560400   
_________________________________________________________________
lstm_9 (LSTM)                (None, 128)               117248    
_________________________________________________________________
dropout_9 (Dropout)          (None, 128)               0         
_________________________________________________________________
dense_9 (Dense)              (None, 2)                 258       
=================================================================
Total params: 2,677,906
Trainable params: 117,506
Non-trainable params: 2,560,400
_________________________________________________________________
None
test preds [[0.03950492 0.9604951 ]
 [0.10909716 0.8909029 ]
 [0.82539254 0.17460741]
 ...
 [0.18136416 0.8186358 ]
 [0.7846912  0.21530877]
 [0.03615209 0.9638479 ]]
Saved model to disk
Accuracy run 9: 0.6022598876791485

_________________________________________________________________
Layer (type)                 Output Shape              Param #   
=================================================================
embedding_10 (Embedding)     (None, 300, 100)          2560400   
_________________________________________________________________
lstm_10 (LSTM)               (None, 128)               117248    
_________________________________________________________________
dropout_10 (Dropout)         (None, 128)               0         
_________________________________________________________________
dense_10 (Dense)             (None, 2)                 258       
=================================================================
Total params: 2,677,906
Trainable params: 117,506
Non-trainable params: 2,560,400
_________________________________________________________________
None
test preds [[3.0515566e-03 9.9694842e-01]
 [8.8776677e-04 9.9911219e-01]
 [9.9992037e-01 7.9664198e-05]
 ...
 [5.9845205e-04 9.9940157e-01]
 [9.9993944e-01 6.0547787e-05]
 [6.3699728e-04 9.9936301e-01]]
…
 [1. 0.]
 [0. 1.]
 [1. 0.]
 [0. 1.]
 [0. 1.]
 [1. 0.]
 [0. 1.]
 [1. 0.]
 [0. 1.]
 [1. 0.]
 [1. 0.]
 [0. 1.]
 [1. 0.]
 [0. 1.]
 [1. 0.]
 [0. 1.]
 [1. 0.]
 [0. 1.]
 [0. 1.]
 [0. 1.]
 [1. 0.]
 [0. 1.]
 [1. 0.]
 [0. 1.]
 [0. 1.]
 [1. 0.]
 [0. 1.]
 [1. 0.]
 [1. 0.]
 [1. 0.]
 [0. 1.]
 [0. 1.]
 [1. 0.]
 [0. 1.]
 [0. 1.]
 [0. 1.]
 [1. 0.]
 [1. 0.]
 [1. 0.]
 [0. 1.]
 [0. 1.]
 [0. 1.]]
_________________________________________________________________
Layer (type)                 Output Shape              Param #   
=================================================================
embedding_1 (Embedding)      (None, 300, 100)          3135400   
_________________________________________________________________
lstm_1 (LSTM)                (None, 128)               117248    
_________________________________________________________________
dropout_1 (Dropout)          (None, 128)               0         
_________________________________________________________________
dense_1 (Dense)              (None, 2)                 258       
=================================================================
Total params: 3,252,906
Trainable params: 117,506
Non-trainable params: 3,135,400
_________________________________________________________________
None
test preds [[… Saved model to disk
Accuracy run 1: 0.8259385669597586

_________________________________________________________________
Layer (type)                 Output Shape              Param #   
=================================================================
embedding_2 (Embedding)      (None, 300, 100)          3135400   
_________________________________________________________________
lstm_2 (LSTM)                (None, 128)               117248    
_________________________________________________________________
dropout_2 (Dropout)          (None, 128)               0         
_________________________________________________________________
dense_2 (Dense)              (None, 2)                 258       
=================================================================
Total params: 3,252,906
Trainable params: 117,506
Non-trainable params: 3,135,400
_________________________________________________________________
None
test preds [[… Saved model to disk
Accuracy run 2: 0.7713310584273355

_________________________________________________________________
Layer (type)                 Output Shape              Param #   
=================================================================
embedding_3 (Embedding)      (None, 300, 100)          3135400   
_________________________________________________________________
lstm_3 (LSTM)                (None, 128)               117248    
_________________________________________________________________
dropout_3 (Dropout)          (None, 128)               0         
_________________________________________________________________
dense_3 (Dense)              (None, 2)                 258       
=================================================================
Total params: 3,252,906
Trainable params: 117,506
Non-trainable params: 3,135,400
_________________________________________________________________
None
test preds [[… Saved model to disk
Accuracy run 3: 0.7474402734444003

_________________________________________________________________
Layer (type)                 Output Shape              Param #   
=================================================================
embedding_4 (Embedding)      (None, 300, 100)          3135400   
_________________________________________________________________
lstm_4 (LSTM)                (None, 128)               117248    
_________________________________________________________________
dropout_4 (Dropout)          (None, 128)               0         
_________________________________________________________________
dense_4 (Dense)              (None, 2)                 258       
=================================================================
Total params: 3,252,906
Trainable params: 117,506
Non-trainable params: 3,135,400
_________________________________________________________________
None
test preds [[… Saved model to disk
Accuracy run 4: 0.7883959048437177

_________________________________________________________________
Layer (type)                 Output Shape              Param #   
=================================================================
embedding_5 (Embedding)      (None, 300, 100)          3135400   
_________________________________________________________________
lstm_5 (LSTM)                (None, 128)               117248    
_________________________________________________________________
dropout_5 (Dropout)          (None, 128)               0         
_________________________________________________________________
dense_5 (Dense)              (None, 2)                 258       
=================================================================
Total params: 3,252,906
Trainable params: 117,506
Non-trainable params: 3,135,400
_________________________________________________________________
None
test preds [[… Saved model to disk
Accuracy run 5: 0.767918089144059

_________________________________________________________________
Layer (type)                 Output Shape              Param #   
=================================================================
embedding_6 (Embedding)      (None, 300, 100)          3135400   
_________________________________________________________________
lstm_6 (LSTM)                (None, 128)               117248    
_________________________________________________________________
dropout_6 (Dropout)          (None, 128)               0         
_________________________________________________________________
dense_6 (Dense)              (None, 2)                 258       
=================================================================
Total params: 3,252,906
Trainable params: 117,506
Non-trainable params: 3,135,400
_________________________________________________________________
None
test preds [[… Saved model to disk
Accuracy run 6: 0.7952218434102706

_________________________________________________________________
Layer (type)                 Output Shape              Param #   
=================================================================
embedding_7 (Embedding)      (None, 300, 100)          3135400   
_________________________________________________________________
lstm_7 (LSTM)                (None, 128)               117248    
_________________________________________________________________
dropout_7 (Dropout)          (None, 128)               0         
_________________________________________________________________
dense_7 (Dense)              (None, 2)                 258       
=================================================================
Total params: 3,252,906
Trainable params: 117,506
Non-trainable params: 3,135,400
_________________________________________________________________
None
test preds [[… Saved model to disk
Accuracy run 7: 0.6962457339918248

_________________________________________________________________
Layer (type)                 Output Shape              Param #   
=================================================================
embedding_8 (Embedding)      (None, 300, 100)          3135400   
_________________________________________________________________
lstm_8 (LSTM)                (None, 128)               117248    
_________________________________________________________________
dropout_8 (Dropout)          (None, 128)               0         
_________________________________________________________________
dense_8 (Dense)              (None, 2)                 258       
=================================================================
Total params: 3,252,906
Trainable params: 117,506
Non-trainable params: 3,135,400
_________________________________________________________________
None
test preds [[… Saved model to disk
Accuracy run 8: 0.7542662120109532

_________________________________________________________________
Layer (type)                 Output Shape              Param #   
=================================================================
embedding_9 (Embedding)      (None, 300, 100)          3135400   
_________________________________________________________________
lstm_9 (LSTM)                (None, 128)               117248    
_________________________________________________________________
dropout_9 (Dropout)          (None, 128)               0         
_________________________________________________________________
dense_9 (Dense)              (None, 2)                 258       
=================================================================
Total params: 3,252,906
Trainable params: 117,506
Non-trainable params: 3,135,400
_________________________________________________________________
None
test preds [[… Saved model to disk
Accuracy run 9: 0.7883959048437177

_________________________________________________________________
Layer (type)                 Output Shape              Param #   
=================================================================
embedding_10 (Embedding)     (None, 300, 100)          3135400   
_________________________________________________________________
lstm_10 (LSTM)               (None, 128)               117248    
_________________________________________________________________
dropout_10 (Dropout)         (None, 128)               0         
_________________________________________________________________
dense_10 (Dense)             (None, 2)                 258       
=================================================================
Total params: 3,252,906
Trainable params: 117,506
Non-trainable params: 3,135,400
_________________________________________________________________
None
test preds [[… Saved model to disk
Accuracy run 10: 0.7815699662771648

averaged accuracy 0.8287671232876712
2018-07-18 00:22:11.962925: I tensorflow/core/platform/cpu_feature_guard.cc:140] Your CPU supports instructions that this TensorFlow binary was not compiled to use: AVX2 FMA
…
 [0. 1.]
 [0. 1.]
 [0. 1.]
 [0. 1.]
 [0. 1.]
 [0. 1.]
 [0. 1.]
 [1. 0.]
 [0. 1.]
 [0. 1.]
 [0. 1.]
 [0. 1.]
 [1. 0.]
 [1. 0.]
 [1. 0.]
 [1. 0.]
 [0. 1.]
 [1. 0.]
 [0. 1.]
 [0. 1.]
 [1. 0.]
 [1. 0.]
 [1. 0.]
 [0. 1.]
 [0. 1.]
 [1. 0.]
 [1. 0.]
 [0. 1.]
 [0. 1.]
 [0. 1.]
 [0. 1.]
 [0. 1.]
 [0. 1.]
 [1. 0.]
 [1. 0.]
 [0. 1.]
 [0. 1.]
 [1. 0.]
 [1. 0.]
 [1. 0.]
 [1. 0.]
 [1. 0.]]
_________________________________________________________________
Layer (type)                 Output Shape              Param #   
=================================================================
embedding_1 (Embedding)      (None, 300, 100)          2090500   
_________________________________________________________________
lstm_1 (LSTM)                (None, 128)               117248    
_________________________________________________________________
dropout_1 (Dropout)          (None, 128)               0         
_________________________________________________________________
dense_1 (Dense)              (None, 2)                 258       
=================================================================
Total params: 2,208,006
Trainable params: 117,506
Non-trainable params: 2,090,500
_________________________________________________________________
None
test preds [[… Saved model to disk
Accuracy run 1: 0.6721311481272588

_________________________________________________________________
Layer (type)                 Output Shape              Param #   
=================================================================
embedding_2 (Embedding)      (None, 300, 100)          2090500   
_________________________________________________________________
lstm_2 (LSTM)                (None, 128)               117248    
_________________________________________________________________
dropout_2 (Dropout)          (None, 128)               0         
_________________________________________________________________
dense_2 (Dense)              (None, 2)                 258       
=================================================================
Total params: 2,208,006
Trainable params: 117,506
Non-trainable params: 2,090,500
_________________________________________________________________
None
test preds [[… Saved model to disk
Accuracy run 2: 0.5803278700250094

_________________________________________________________________
Layer (type)                 Output Shape              Param #   
=================================================================
embedding_3 (Embedding)      (None, 300, 100)          2090500   
_________________________________________________________________
lstm_3 (LSTM)                (None, 128)               117248    
_________________________________________________________________
dropout_3 (Dropout)          (None, 128)               0         
_________________________________________________________________
dense_3 (Dense)              (None, 2)                 258       
=================================================================
Total params: 2,208,006
Trainable params: 117,506
Non-trainable params: 2,090,500
_________________________________________________________________
None
test preds [[… Saved model to disk
Accuracy run 3: 0.7016393450439954

_________________________________________________________________
Layer (type)                 Output Shape              Param #   
=================================================================
embedding_4 (Embedding)      (None, 300, 100)          2090500   
_________________________________________________________________
lstm_4 (LSTM)                (None, 128)               117248    
_________________________________________________________________
dropout_4 (Dropout)          (None, 128)               0         
_________________________________________________________________
dense_4 (Dense)              (None, 2)                 258       
=================================================================
Total params: 2,208,006
Trainable params: 117,506
Non-trainable params: 2,090,500
_________________________________________________________________
None
test preds [[… Saved model to disk
Accuracy run 4: 0.7081967220931756

_________________________________________________________________
Layer (type)                 Output Shape              Param #   
=================================================================
embedding_5 (Embedding)      (None, 300, 100)          2090500   
_________________________________________________________________
lstm_5 (LSTM)                (None, 128)               117248    
_________________________________________________________________
dropout_5 (Dropout)          (None, 128)               0         
_________________________________________________________________
dense_5 (Dense)              (None, 2)                 258       
=================================================================
Total params: 2,208,006
Trainable params: 117,506
Non-trainable params: 2,090,500
_________________________________________________________________
None
test preds [[… Saved model to disk
Accuracy run 5: 0.7344262304853221

_________________________________________________________________
Layer (type)                 Output Shape              Param #   
=================================================================
embedding_6 (Embedding)      (None, 300, 100)          2090500   
_________________________________________________________________
lstm_6 (LSTM)                (None, 128)               117248    
_________________________________________________________________
dropout_6 (Dropout)          (None, 128)               0         
_________________________________________________________________
dense_6 (Dense)              (None, 2)                 258       
=================================================================
Total params: 2,208,006
Trainable params: 117,506
Non-trainable params: 2,090,500
_________________________________________________________________
None
test preds [[… Saved model to disk
Accuracy run 6: 0.7508196727174228

_________________________________________________________________
Layer (type)                 Output Shape              Param #   
=================================================================
embedding_7 (Embedding)      (None, 300, 100)          2090500   
_________________________________________________________________
lstm_7 (LSTM)                (None, 128)               117248    
_________________________________________________________________
dropout_7 (Dropout)          (None, 128)               0         
_________________________________________________________________
dense_7 (Dense)              (None, 2)                 258       
=================================================================
Total params: 2,208,006
Trainable params: 117,506
Non-trainable params: 2,090,500
_________________________________________________________________
None
test preds [[… Saved model to disk
Accuracy run 7: 0.7737704923895539

_________________________________________________________________
Layer (type)                 Output Shape              Param #   
=================================================================
embedding_8 (Embedding)      (None, 300, 100)          2090500   
_________________________________________________________________
lstm_8 (LSTM)                (None, 128)               117248    
_________________________________________________________________
dropout_8 (Dropout)          (None, 128)               0         
_________________________________________________________________
dense_8 (Dense)              (None, 2)                 258       
=================================================================
Total params: 2,208,006
Trainable params: 117,506
Non-trainable params: 2,090,500
_________________________________________________________________
None
test preds [[… Saved model to disk
Accuracy run 8: 0.6983606567148303

_________________________________________________________________
Layer (type)                 Output Shape              Param #   
=================================================================
embedding_9 (Embedding)      (None, 300, 100)          2090500   
_________________________________________________________________
lstm_9 (LSTM)                (None, 128)               117248    
_________________________________________________________________
dropout_9 (Dropout)          (None, 128)               0         
_________________________________________________________________
dense_9 (Dense)              (None, 2)                 258       
=================================================================
Total params: 2,208,006
Trainable params: 117,506
Non-trainable params: 2,090,500
_________________________________________________________________
None
test preds [[… Saved model to disk
Accuracy run 9: 0.7934426233416698

_________________________________________________________________
Layer (type)                 Output Shape              Param #   
=================================================================
embedding_10 (Embedding)     (None, 300, 100)          2090500   
_________________________________________________________________
lstm_10 (LSTM)               (None, 128)               117248    
_________________________________________________________________
dropout_10 (Dropout)         (None, 128)               0         
_________________________________________________________________
dense_10 (Dense)             (None, 2)                 258       
=================================================================
Total params: 2,208,006
Trainable params: 117,506
Non-trainable params: 2,090,500
_________________________________________________________________
None
test preds [[… Saved model to disk
Accuracy run 10: 0.7081967220931756

averaged accuracy 0.7960526315789473


###############################################################################
…
